Assets/onnx/AppleAgent-50034.onnx (onnx, 188181 bytes, 13 tensors)

discrete_act_size_vector f4 [1, 4]
0	0x43340000	180.0
1	0x40800000	4.0
2	0x41900000	18.0
3	0x41200000	10.0

network_body._body_endoder.seq_layers.0.weight f4 [128, 1]
0	0x3f47515b	0.77858514
1	0xbf794d43	-0.9738352
2	0xbf8278e5	-1.0193144
3	0x3f664fcb	0.89965504
4	0x3f7d4d9f	0.98946565
5	0x3dac930d	0.08426485
6	0xbf67b518	-0.905107
7	0x3f6a0920	0.91420174
8	0x3f973ea0	1.1815987
9	0xbfe7cbc4	-1.8109059
10	0xbf671cfc	-0.902786
11	0xbe83a078	-0.25708365
12	0x3f00647e	0.5015334
13	0x3ee4b81d	0.44671717
14	0x3c9d4c01	0.01920128
15	0x3e5a7d24	0.213368
16	0x3ee0f162	0.4393416
17	0x3f43fd28	0.7655816
18	0x3f8110b3	1.0083221
19	0x3f5435cf	0.82894605
20	0xbda88a33	-0.082294844
21	0xbe992cd6	-0.2991702
22	0xbeb9ada3	-0.36265287
23	0xbe6b378d	-0.2297041
24	0xbf862494	-1.0479913
25	0x3dc7cf9d	0.09756396
26	0x3f9f4e0e	1.2445695
27	0xbcbbfb6c	-0.022947036
28	0xbf8f1568	-1.1178408
29	0x3efec419	0.49758986
30	0x3fb250ff	1.3930968
31	0x3fb0b008	1.380372
32	0xbe19cec5	-0.15020283
33	0x3f4becb1	0.7965804
34	0x3eab1c1a	0.33419877
35	0x3f5553ee	0.8333119
36	0x3f28dd67	0.65962833
37	0xbeebab56	-0.46029156
38	0x3fe30c8b	1.7738203
39	0xbe979e3a	-0.29612905
40	0x3f4ac202	0.7920228
41	0xbf04f4a2	-0.5193578
42	0x3f5be699	0.8589874
43	0xbe3883b1	-0.18018986
44	0x3fc476f0	1.5348797
45	0x3f363cbf	0.7118644
46	0x3ed41c5a	0.4142788
47	0xbe7b3eb1	-0.24535634
48	0x3f843048	1.0327234
49	0x3f723cc7	0.9462399
50	0x3e1955fc	0.14974207
51	0x3f2ed5ac	0.6829479
52	0x3fa44911	1.2834798
53	0xbef466af	-0.4773459
54	0xbd37fa15	-0.04491623
55	0xba556b43	-0.00081412884
56	0x3f034c91	0.51288706
57	0xbeedaf9c	-0.46423042
58	0x3ddc7dce	0.10766183
59	0xbf9f62ac	-1.2451987
60	0xbf49ce2b	-0.7883021
61	0x3f8ab4d9	1.083644
62	0x3f396bda	0.72430193
63	0x3fce44e0	1.6114769
64	0x3ea2cbfe	0.3179626
65	0x3f9ee38c	1.2413192
66	0xbea5f1b5	-0.3241097
67	0xbf2f87a1	-0.6856633
68	0x3f2b6f9a	0.66967165
69	0xbda10e8d	-0.078641035
70	0xbfd80661	-1.6876947
71	0x3df310f0	0.11868465
72	0x3e06585b	0.13119642
73	0xbf7b3488	-0.9812703
74	0xbfcc705a	-1.5971787
75	0xbf963613	-1.1735252
76	0xc0019d9b	-2.0252445
77	0x3f7e08ab	0.99231976
78	0xbeda6c8a	-0.42660934
79	0xc0078cee	-2.1179767
80	0x3e4a5f10	0.19762826
81	0xbd5d619c	-0.054048166
82	0xbf6bfb0b	-0.92179936
83	0x3f85ed98	1.0463133
84	0x3f9be52b	1.2179312
85	0xbe90fd3b	-0.283182
86	0xbfaf34ed	-1.3688027
87	0x3e10412a	0.14087358
88	0x3f97b0b9	1.1850806
89	0xbf98265b	-1.1886705
90	0xbf96fda1	-1.1796151
91	0x3c0e020d	0.008667481
92	0xbf5d6c8e	-0.86493766
93	0x3e3e126c	0.18561715
94	0x3fb36173	1.4014114
95	0x3ecfe7fa	0.40606672
96	0xbe8898bb	-0.26679024
97	0xbfb40909	-1.4065257
98	0xbf0000c3	-0.5000116
99	0x3ef99f45	0.48754326
100	0x3f6a475e	0.9151515
101	0xbed7c8cd	-0.42145386
102	0xbd176558	-0.036961883
103	0x3e804797	0.2505462
104	0xbf929ab1	-1.1453458
105	0xbe875dec	-0.26438844
106	0xbe40fae5	-0.18845709
107	0xc02e81d5	-2.7266743
108	0xbfba32f6	-1.4546802
109	0x3eef0328	0.46682096
110	0xbf9a18e9	-1.2038852
111	0xbffe049e	-1.9845159
112	0xbecaf653	-0.39641055
113	0x3fbb89aa	1.4651387
114	0xbfbfbcb7	-1.4979466
115	0xbeee7c20	-0.46579075
116	0x3d2a47f2	0.04157252
117	0xbf81aa81	-1.0130159
118	0x3fb146a0	1.3849678
119	0xbe41a723	-0.18911414
120	0x3f07d22e	0.53055084
121	0x3f4a5c0d	0.7904671
122	0x3dc673ee	0.096900806
123	0x3e7c5bf0	0.24644446
124	0xbeb28aac	-0.34871423
125	0x3e561970	0.20908141
126	0x3f183575	0.5945657
127	0x3eecbd29	0.46238068

network_body._body_endoder.seq_layers.0.bias f4 [128]
0	0xb88e03e2	-6.771811e-05
1	0x3a26b386	0.00063591485
2	0xba00fa32	-0.00049200945
3	0x3a3832e3	0.00070266257
4	0x375cc43c	1.3158711e-05
5	0x3a76b0b3	0.00094104855
6	0xbb7f0952	-0.0038915467
7	0x3abda06c	0.0014467365
8	0x3a59c914	0.0008307856
9	0x3ad9cc4e	0.0016616674
10	0xb9e6ea09	-0.00044043388
11	0xb981ed7b	-0.00024781734
12	0xba7dadbd	-0.0009677073
13	0xba5ffe1a	-0.0008544639
14	0x3a73bd19	0.0009297892
15	0x3997293b	0.00028831683
16	0x399527ae	0.00028449058
17	0x39b6a32f	0.00034835326
18	0xbaa0d775	-0.0012271242
19	0xbadabc17	-0.0016688135
20	0xba4c903f	-0.0007803477
21	0xbb17372a	-0.0023073652
22	0xba52a882	-0.0008035974
23	0xba0ef068	-0.00054526934
24	0x3a37fc05	0.000701845
25	0xba7d2e2c	-0.0009658064
26	0xbad904bc	-0.0016557197
27	0xba3c4246	-0.00071815064
28	0xb9dc891a	-0.0004206382
29	0x3a59852c	0.0008297737
30	0xba9549a4	-0.0011389744
31	0xb9348c7f	-0.00017218477
32	0xba7a89b7	-0.0009557264
33	0x3aa52326	0.0012598976
34	0xb8a6fadd	-7.962224e-05
35	0xba96183d	-0.0011451315
36	0x3a8a374e	0.0010545047
37	0x3a21dd99	0.0006174683
38	0xb89a051f	-7.344246e-05
39	0xba89aaad	-0.0010503136
40	0x3a1039d3	0.00055017805
41	0xbafb478f	-0.0019171106
42	0xbaa0d83e	-0.0012271476
43	0x3aa439f7	0.0012529482
44	0x3aa33b09	0.0012453507
45	0x3a3fb875	0.0007313558
46	0xb8e43441	-0.0001088162
47	0x3a187f6c	0.0005817327
48	0x3ae905dd	0.0017778237
49	0x38e54f89	0.000109343855
50	0x3a070c71	0.0005151695
51	0x39d6021d	0.00040818835
52	0xba9a6122	-0.0011778215
53	0xb9a17dcf	-0.00030802048
54	0x3a08a6e9	0.000521286
55	0x3acabb39	0.0015467174
56	0x39cf4a76	0.00039537594
57	0x3a834bdf	0.0010017118
58	0x3b22931f	0.002480693
59	0xbac2fe9b	-0.0014876904
60	0xbab1548b	-0.0013529224
61	0x3aa346ef	0.0012457053
62	0xba9d2570	-0.0011989307
63	0xba997937	-0.0011709098
64	0x39d709a2	0.00041015173
65	0x3aad3768	0.0013215365
66	0x3b1bd76e	0.002377953
67	0xb8415cab	-4.610109e-05
68	0x3b00207b	0.001955061
69	0x39513a45	0.000199535
70	0xba21ac1e	-0.000616731
71	0x3a89f4a1	0.0010525176
72	0x3a4932f6	0.0007675135
73	0xba969ebc	-0.0011491398
74	0xba79f4fc	-0.00095351017
75	0xbad6c56f	-0.0016385744
76	0xbabb0ace	-0.0014270188
77	0xbac44631	-0.0014974532
78	0xb98468c3	-0.00025255056
79	0xbaf7fb78	-0.0018919548
80	0xbaf145b7	-0.0018407617
81	0x3b1b31d2	0.0023680818
82	0x38c573cf	9.415263e-05
83	0xba97e733	-0.0011589288
84	0x39e622a1	0.0004389482
85	0x3a42340a	0.0007408267
86	0xb98d0e17	-0.00026904113
87	0x39d10c7b	0.00039872885
88	0xba49b099	-0.00076938566
89	0xba770a6e	-0.00094238564
90	0xbb18cae4	-0.0023314292
91	0x3b13bcc7	0.002254294
92	0xbb3244c1	-0.0027201625
93	0x3a9e0192	0.0012054911
94	0xb9b2de64	-0.000341165
95	0x39bb68df	0.00035745554
96	0xb987a0b9	-0.00025868954
97	0xbb0613f3	-0.0020458668
98	0xbaa2c163	-0.0012417253
99	0xba199daf	-0.00058599835
100	0xbac7a73e	-0.0015232337
101	0x3ab8572d	0.0014064066
102	0x3b024e23	0.0019883
103	0xbadc59b6	-0.0016811404
104	0x38c9ac83	9.61656e-05
105	0xba9e3983	-0.0012071583
106	0x3a9924b0	0.0011683907
107	0xbb25d01d	-0.0025301047
108	0x3ace4c3a	0.001573927
109	0xba785e0a	-0.0009474462
110	0xbb375d25	-0.0027979102
111	0xbac57009	-0.0015063296
112	0x39a10998	0.0003071546
113	0xb9737c24	-0.00023220532
114	0xbb1eb128	-0.002421448
115	0xba6b545b	-0.00089771085
116	0xbac9be19	-0.0015391737
117	0xbb2ab03d	-0.0026044988
118	0xb9ddc25b	-0.0004229721
119	0xbaf8987b	-0.0018966341
120	0xb9898c0d	-0.00026235022
121	0x3b0b28e6	0.0021234094
122	0x3a86780b	0.0010259164
123	0x39c32b81	0.0003722571
124	0xba98b0fa	-0.0011649423
125	0xbab5bc20	-0.001386527
126	0x39c0faa8	0.00036807847
127	0x3a6b120b	0.0008967227

network_body._body_endoder.seq_layers.2.weight f4 [128, 128]
0	0x3c8ee94b	0.017445227
1	0x3e4e5a60	0.20151663
2	0x3db9bf1a	0.09069653
3	0x3cea6777	0.028613789
4	0x3c9326c5	0.017962823
5	0x3b57ef0f	0.0032948887
6	0xbab94049	-0.0014133538
7	0x3e1754b2	0.14778402
8	0x3c34a95f	0.011026709
9	0xbe875f98	-0.2644012
10	0xbc7db8da	-0.015485967
11	0xbdcc499f	-0.099749796
12	0xbe361c57	-0.17784248
13	0xbdc7d328	-0.09757072
14	0xbd0a6a1b	-0.033792596
15	0x3d0f49db	0.034982543
16	0xbdd54cf5	-0.10415069
17	0x3e3f4e11	0.18682124
18	0x3c5fc9fc	0.013658997
19	0xbdecd7cf	-0.115646
20	0x3d540a82	0.051767834
21	0xbd26d437	-0.040729728
22	0xbdb68f06	-0.08913998
23	0x3ba9e780	0.0051850677
24	0x3e046afb	0.12931435
25	0x3d0ac5d4	0.03388007
26	0x3dd384ab	0.10328039
27	0x3cef68f7	0.029224856
28	0xbde46952	-0.11152901
29	0xbc0b22d6	-0.008492192
30	0x3c6b998b	0.014379869
31	0xbc18d597	-0.009328268
32	0xbde385a2	-0.11109473
33	0x3bd1cb1f	0.0064023877
34	0xbcaeee40	-0.02135384
35	0x3cead477	0.028665764
36	0x3e0c7b59	0.13718928
37	0x3cef1b13	0.029187715
38	0xbdb8384f	-0.08995115
39	0xbd00650a	-0.03134636
40	0xbd992075	-0.07476894
41	0xbd383c66	-0.044979475
42	0x3d10613e	0.035248987
43	0x3c1e4825	0.009660755
44	0x3e2ab24b	0.16669576
45	0x3e43729e	0.19086692
46	0xbe1d5dea	-0.15367857
47	0x3e062bf7	0.13102709
48	0x3d05cabd	0.03266405
49	0x3ca66c55	0.020315329
50	0x3b88e809	0.0041780514
51	0x3c5a5a02	0.013327124
52	0x3d8ea4dc	0.06965038
53	0xbe0e61c5	-0.13904484
54	0x3d384e37	0.044996466
55	0x3d0a7b39	0.03380892
56	0xbd50902d	-0.050918747
57	0x3ddd63de	0.10810064
58	0x3d17459e	0.036931626
59	0xbb9fc9ea	-0.004876365
60	0xbc411a63	-0.011786076
61	0x3d5a1cdf	0.05325019
62	0x3ddb422c	0.10705981
63	0x3d65dca4	0.056118622
64	0x3ce3014e	0.027710583
65	0x3e1d6c75	0.15373404
66	0x3c2291e5	0.009922479
67	0xbe269d13	-0.16270857
68	0xbd605cab	-0.054775875
69	0x3d87cbcb	0.06630667
70	0x3c5118b2	0.0127622355
71	0xbe01bfb6	-0.12670788
72	0x3d8ebe85	0.069699325
73	0xbcc0b8d6	-0.023525637
74	0xbe7ac2eb	-0.24488418
75	0x3de7d70e	0.11320315
76	0x3d35977a	0.044333912
77	0x3b2fec18	0.0026843604
78	0xbdaa6785	-0.08320526
79	0x3ca829cf	0.020527748
80	0xbdf99ef0	-0.12188518
81	0x3d9abe0a	0.07555778
82	0xbe6e9769	-0.23299946
83	0xbcefbc5e	-0.029264625
84	0xbe817b4f	-0.2528939
85	0xbd67cd7b	-0.056592446
86	0xbdc1349b	-0.09433862
87	0x3d8c7b2b	0.0685943
88	0xbad88da3	-0.0016521703
89	0x3c91b135	0.017784694
90	0xbd25b734	-0.04045792
91	0xbc6bbbeb	-0.014388065
92	0x3de2fadf	0.11083006
93	0x3c803243	0.015648967
94	0xbe492d79	-0.19646253
95	0xbd472011	-0.048614565
96	0xbba03239	-0.0048887995
97	0xbd840b68	-0.06447488
98	0xbbc5338b	-0.0060181073
99	0xbd0c4f47	-0.034255292
100	0xbe07987b	-0.1324176
101	0x3c4df287	0.01257003
102	0xbdb4cc8c	-0.08828077
103	0xbdcae6ec	-0.09907326
104	0xbd9a75e2	-0.075420156
105	0x3d857ab4	0.065175444
106	0x3cc26733	0.02373085
107	0x3d27b45b	0.040943485
108	0x3ddd34e5	0.108011045
109	0xbd08ecf5	-0.033429105
110	0xbaf5b56d	-0.0018746086
111	0x3d49f963	0.0493101
112	0xbd1e6c85	-0.03867771
113	0x3c0d2a3c	0.0086160265
114	0x3cc1ce42	0.023657922
115	0xbdd6f099	-0.10495109
116	0xbd434a2b	-0.047678154
117	0xbd44ae51	-0.048017804
118	0x3bedb00d	0.007253653
119	0x3de953e8	0.11392957
120	0xbc363867	-0.011121846
121	0x3cb33183	0.021874195
122	0x3de36a2f	0.11104237
123	0xbd30e2e9	-0.04318515
124	0xbba87e2b	-0.0051419935
125	0xbd455b02	-0.048182495
126	0x3d8fd609	0.07023246
127	0x3d4efde5	0.0505351
128	0x3c941ef8	0.018081173
129	0xbd932e74	-0.071865946
130	0x3ce549be	0.027989265
131	0x3d77dad2	0.060511418
132	0xbe06e2fe	-0.13172528
133	0xbe3c22a1	-0.18372585
134	0x3bdcbb50	0.0067361966
135	0x3d35fc0c	0.044429824
136	0x3cdea68b	0.027179023
137	0x3e4e3523	0.20137458
138	0xbe3b97d4	-0.18319637
139	0xba6ecc6b	-0.000910944
140	0x3db7825d	0.08960412
141	0xbd82fa45	-0.063953914
142	0x3d9b9abd	0.07597873
143	0x3d8ecbf8	0.06972498
144	0x3db8b1d9	0.09018297
145	0xbc65290b	-0.013986836
146	0x3dc12f18	0.094328105
147	0x3d27180b	0.040794414
148	0x3ca067b0	0.019580692
149	0x3d7a9eba	0.06118653
150	0x3dbd2676	0.092358515
151	0x3cccf98a	0.025021333
152	0x3d0fec86	0.035137676
153	0xbc64cf15	-0.013965388
154	0x3d02b493	0.03191049
155	0xbd29fb4a	-0.041499414
156	0xbc085c5b	-0.0083228005
157	0x3bbc7875	0.0057516643
158	0xbdec8cfb	-0.115503274
159	0x3cf26b81	0.029592277
160	0xbba72ff9	-0.0051021543
161	0xbda25454	-0.079262406
162	0x3e38f973	0.18063907
163	0xbc4de42b	-0.0125666065
164	0x3cc3501c	0.02384191
165	0xbdc004a1	-0.09375883
166	0x3d65b37a	0.056079365
167	0x3d6a85d4	0.057256535
168	0xbe22c9cc	-0.15897292
169	0xbd8d8f98	-0.06912154
170	0xbd858fc1	-0.065215595
171	0x3cf1add4	0.029501833
172	0xbd4305d6	-0.047612987
173	0x3ceae822	0.028675143
174	0x3dea7e8b	0.114499174
175	0x3d888a5e	0.066670164
176	0xbce358df	-0.027752338
177	0x3c8ce28c	0.01719787
178	0x3cfd1cd8	0.030897543
179	0xbdebe654	-0.11518541
180	0x3c1a1be9	0.009406068
181	0x3a97794e	0.0011556537
182	0x3d4c1073	0.049820375
183	0x3e3aeedb	0.18255179
184	0xbc30ed02	-0.010798695
185	0xbda980ef	-0.08276545
186	0xbe600fdc	-0.2188105
187	0x3d8f0cf2	0.06984891
188	0xbd8e4d36	-0.069483206
189	0x3dfe7d75	0.12426273
190	0xbd849abb	-0.06474825
191	0x3db925f7	0.09040444
192	0x3da7bfc2	0.08190872
193	0xbd9df466	-0.07712631
194	0xbd62c1f6	-0.055360757
195	0x3cea219c	0.02858048
196	0xbbd04b7b	-0.006356654
197	0x3b8931f3	0.0041868626
198	0x3e226e3b	0.15862362
199	0xbd83f429	-0.06443054
200	0xbd202c7c	-0.039104924
201	0x3e14d61c	0.14534801
202	0x3d568df5	0.052381475
203	0x3c33925c	0.010960188
204	0x3dbbcd7d	0.09170053
205	0xbdf138aa	-0.11778386
206	0x3e207497	0.15669475
207	0x3cc2f3f5	0.023797968
208	0x3df8e580	0.12153149
209	0xbbfa6612	-0.0076415623
210	0x3cfee839	0.031116592
211	0xb9657065	-0.00021881012
212	0x3cfe7dde	0.031065878
213	0x3d810677	0.06300061
214	0xbd0dc869	-0.034614954
215	0xbe3b56a9	-0.18294777
216	0x3d1601d5	0.03662284
217	0xbd9302ca	-0.07178266
218	0xbdc2292b	-0.094805084
219	0x3d217fb2	0.03942842
220	0xbbf3df73	-0.0074424087
221	0x3d998152	0.07495369
222	0xbd8a1b46	-0.06743483
223	0x3b59bdd1	0.0033224712
224	0xbe2c1150	-0.16803479
225	0x3e216bec	0.15763825
226	0x3d12d73f	0.035849806
227	0xbdb0fac7	-0.08641582
228	0xbc7f7a22	-0.015593084
229	0x3d52443e	0.051334612
230	0xbd0b36c3	-0.03398777
231	0xbb689080	-0.003548652
232	0x3d7b8ed0	0.061415493
233	0x3df5fcef	0.12011134
234	0x3be30ace	0.0069287783
235	0xbdf2cad2	-0.11855091
236	0x3e0383a8	0.12843192
237	0xbd6b616c	-0.057465956
238	0xbd349320	-0.04408562
239	0xbd984f0d	-0.07436953
240	0xbcd4c265	-0.0259716
241	0xbcb74af7	-0.022374613
242	0xbd3aacf8	-0.045575112
243	0x3cbebe80	0.023284197
244	0xbd3639d4	-0.044488743
245	0x3dddef11	0.10836614
246	0xbe0dc55d	-0.1384482
247	0x3e161a84	0.14658552
248	0xbe855dc5	-0.26048103
249	0xbc396c36	-0.011317303
250	0x3e3a2936	0.18179783
251	0x3d6bb2f7	0.05754372
252	0xbd2ffdd6	-0.042966686
253	0xbc7053e0	-0.014668435
254	0x3c1a86e3	0.009431574
255	0x3cda78fe	0.026669022

network_body._body_endoder.seq_layers.2.bias f4 [128]
0	0xbb164311	-0.0022928158
1	0xbaa1ec6b	-0.0012353783
2	0xb8d2add5	-0.00010045959
3	0xbb22c2de	-0.0024835388
4	0x39fab28e	0.0004781675
5	0x380dfb06	3.3850803e-05
6	0x3b1c27bb	0.0023827392
7	0xbae099b0	-0.0017135646
8	0xbae1eb49	-0.0017236258
9	0xb9e6c176	-0.00044013158
10	0x39a80b05	0.00032051667
11	0xb9fdce09	-0.0004840943
12	0xbb2d483d	-0.0026440762
13	0xbafcd88a	-0.0019290608
14	0xbad0c4d7	-0.0015927803
15	0xbae75ae6	-0.0017650991
16	0x3a19c5bb	0.0005865951
17	0xba82590c	-0.0009944751
18	0xbb261bbe	-0.0025346125
19	0xb8e9f742	-0.00011156361
20	0xbb1fac0c	-0.0024364023
21	0xbae8c78f	-0.0017759668
22	0xb9dd201a	-0.00042176322
23	0xbab7d550	-0.0014025364
24	0x3b053764	0.0020327205
25	0xba8a8216	-0.0010567333
26	0xb9876dce	-0.00025831017
27	0xb8178e8e	-3.613397e-05
28	0x3a3a92df	0.00071172224
29	0xba911e78	-0.0011071702
30	0xb93004d3	-0.00016786465
31	0x3a06ef26	0.000514733
32	0x37bab68c	2.2257933e-05
33	0xba328318	-0.00068096956
34	0xb9f47217	-0.0004662431
35	0xba06fc26	-0.00051492674
36	0xba7bd799	-0.00096070167
37	0xba836b4e	-0.0010026486
38	0xba8a3b8a	-0.0010546308
39	0xbab23765	-0.0013596831
40	0x3a838058	0.0010032756
41	0xba5189a9	-0.000799323
42	0x375515ed	1.2700894e-05
43	0x390dfa7b	0.00013540119
44	0xb991e503	-0.00027827182
45	0xba07ebd8	-0.0005184985
46	0xb9bad9b4	-0.00035638886
47	0x3aa6d2a1	0.0012727567
48	0xbaf2e7ef	-0.0018532256
49	0x3a6dcf59	0.000907173
50	0xb89da370	-7.516786e-05
51	0xb893e27c	-7.051692e-05
52	0x3a9dad73	0.0012029841
53	0xb90c25a2	-0.0001336546
54	0xbae5de6e	-0.0017537603
55	0x3ae4488b	0.0017416639
56	0xba16ba1a	-0.0005749777
57	0xbaca062e	-0.0015413219
58	0x3a9fc7a9	0.0012190241
59	0xba3986b5	-0.0007077263
60	0x3ad042a0	0.0015888996
61	0xb7f4172f	-2.9097862e-05
62	0xba86309b	-0.0010237874
63	0xb9a6cd84	-0.00031815108
64	0x3b0af65e	0.0021203975
65	0xba7c6edd	-0.0009629557
66	0x3a47d461	0.00076228945
67	0xbae01e34	-0.0017098845
68	0xba645cde	-0.0008711348
69	0x3a541314	0.0008090001
70	0xbaaa511e	-0.0012994146
71	0xbaeacbe8	-0.0017913552
72	0xbaf055aa	-0.0018336077
73	0x3821b4b9	3.8553702e-05
74	0xba4a8f20	-0.0007727016
75	0xba0bf2dc	-0.0005338618
76	0xb91957e9	-0.00014623966
77	0xba833321	-0.0010009744
78	0x3aa3babc	0.0012491564
79	0xbacc48ab	-0.0015585622
80	0xba58c695	-0.0008269337
81	0xbb0949fc	-0.002094864
82	0xbaca8b5b	-0.0015452908
83	0xba73c268	-0.0009298683
84	0x3a2de1e9	0.00066330895
85	0x3abb5763	0.0014293011
86	0xba0d1f4c	-0.0005383387
87	0xba8fcd90	-0.0010971297
88	0xbb30126e	-0.0026866454
89	0x3a63145d	0.0008662397
90	0xb99d15ea	-0.000299617
91	0xb99a6937	-0.0002945156
92	0xba30bb23	-0.0006741753
93	0xb9d8de72	-0.00041364465
94	0xb9f0a58d	-0.00045899712
95	0x3986f3ed	0.0002574021
96	0xbb0ad6e5	-0.0021185216
97	0xbaec8997	-0.0018046376
98	0xba682d46	-0.0008856844
99	0xbb04ebc3	-0.0020282126
100	0xb8d18343	-9.990346e-05
101	0xb8ef8317	-0.000114208255
102	0xba847876	-0.0010106701
103	0x3915162f	0.00014218011
104	0x34f8e7ea	4.636234e-07
105	0xbaf5c287	-0.001874999
106	0xbb1a0a26	-0.0023504584
107	0xbadcaf3d	-0.0016836893
108	0x39e13d64	0.00042961084
109	0xba9c2e6a	-0.0011915688
110	0x3aa51c3a	0.0012596913
111	0xba86639d	-0.0010253076
112	0xbb052173	-0.0020314127
113	0xbae6fbc9	-0.0017622645
114	0xbacfdff0	-0.0015859585
115	0xb9a2060c	-0.00030903553
116	0x3a7187fd	0.0009213684
117	0x3a447076	0.00074935646
118	0xb957340e	-0.0002052339
119	0xb9f7ec8c	-0.00047287752
120	0xbb2e21b0	-0.0026570372
121	0xbb29d6e8	-0.0025915448
122	0xbabdd67f	-0.001448348
123	0x39b86b46	0.0003517514
124	0xba0f06db	-0.00054560386
125	0x38daec76	0.00010439094
126	0xbae4c023	-0.0017452281
127	0xba98d515	-0.0011660183

action_model._discrete_distribution.branches.0.weight f4 [180, 128]
0	0xbc34b845	-0.011030261
1	0xbcc8d0a4	-0.02451355
2	0x3c037850	0.00802429
3	0x3c00934e	0.00784762
4	0x39fde6d3	0.00048427898
5	0xbc5858e7	-0.01320479
6	0xbbec5988	-0.0072128214
7	0x3c757a63	0.014982793
8	0x3c36262c	0.011117499
9	0xbbb32a88	-0.0054677166
10	0x3ba04c3f	0.0048919017
11	0xbc36bd4f	-0.011153533
12	0xbc0d4948	-0.008623429
13	0xbc0ceb82	-0.008601071
14	0x3c23847e	0.009980319
15	0xba8de098	-0.001082438
16	0x3b91a4c5	0.004444691
17	0xbb1cfbf7	-0.0023953894
18	0xbb985045	-0.0046482407
19	0x3c0a724a	0.0084501
20	0xbb9021ec	-0.004398575
21	0x3c6b5259	0.014362895
22	0xb922c0bc	-0.00015521323
23	0x3b27405c	0.002552054
24	0x3c30859b	0.0107740415
25	0xbc4d201e	-0.012519864
26	0x3b150b7c	0.002274244
27	0x3ba042fb	0.004890797
28	0xbb048216	-0.0020219139
29	0xbb21754f	-0.0024636572
30	0x3c0967bc	0.008386549
31	0x3b4f395f	0.003161989
32	0x3b3f472b	0.0029186707
33	0x3c038dd4	0.00802942
34	0xbbe5999e	-0.007006838
35	0xba30ca3a	-0.00067440013
36	0xbb4f8dff	-0.003167033
37	0x3b920dee	0.004457227
38	0xbc3c59ca	-0.011496017
39	0x3b13c528	0.0022547934
40	0x3b341dd8	0.0027483609
41	0x3b80d1d9	0.003931266
42	0xbcba0771	-0.022708626
43	0xbbf93a16	-0.0076058013
44	0xbc8f7586	-0.017512094
45	0x3ad31eca	0.0016107198
46	0xbc8864f1	-0.016649695
47	0xbbdaf9ff	-0.006682634
48	0xbbb3f188	-0.0054914393
49	0x3b59fe95	0.0033263315
50	0x3badfe2c	0.0053098407
51	0x3c41611c	0.011802938
52	0xbc8950e6	-0.016762208
53	0x3b06292a	0.0020471313
54	0x3a3467b8	0.00068819104
55	0xba782aca	-0.0009466825
56	0xbcc8e584	-0.024523504
57	0x3b0b7bc1	0.002128348
58	0x3b9717a7	0.004610974
59	0x3c9367a6	0.01799376
60	0xbc4b0e5f	-0.012393563
61	0xb73999cc	-1.1062668e-05
62	0x3c891ac1	0.01673639
63	0xba35b116	-0.000693099
64	0xbb101257	-0.0021983588
65	0x3bc855d4	0.006113747
66	0x3bfafd00	0.0076595545
67	0x3a1bd357	0.0005944273
68	0xbc3e2141	-0.011604608
69	0x3b94985f	0.0045347656
70	0x3c0ed51a	0.0087178
71	0x3c5ac248	0.013351984
72	0x3c48094a	0.012209246
73	0x3c7a6135	0.015281965
74	0xbb3a2d5c	-0.0028408384
75	0xbc1b36ba	-0.009473497
76	0x3c0832b8	0.008312874
77	0x3a3e2d72	0.00072546967
78	0x3bb6e0ed	0.0055810125
79	0x3bd9d20e	0.006647355
80	0x3bd5bdd9	0.0065228757
81	0xbb938a96	-0.0045026047
82	0x3ccfc429	0.025362091
83	0x3c012c81	0.007884146
84	0x3c07f684	0.00829852
85	0xbb92d3f8	-0.004480835
86	0xbc69497c	-0.014238711
87	0x3ae7c2bc	0.0017681937
88	0xbcaadb78	-0.020856604
89	0xbc6ce0d2	-0.014457898
90	0x3c15f7f0	0.009153351
91	0xbb657a85	-0.0035015654
92	0x3b3ed29c	0.0029117232
93	0x3bca0c71	0.006166034
94	0xbc225856	-0.009908756
95	0x38ece4cb	0.00011295973
96	0x3af604ad	0.0018769704
97	0xbaa4e1b6	-0.0012579474
98	0xbc5fed29	-0.013667383
99	0x3a0a7dde	0.0005283038
100	0xbc431ada	-0.011908257
101	0xbc0e0d1a	-0.008670116
102	0x3a987f80	0.0011634678
103	0x3a2a7665	0.00065026275
104	0x3c2c016c	0.010498386
105	0xbc506e64	-0.012721632
106	0x3c87ae07	0.016562475
107	0x3bfad63c	0.0076549333
108	0xbb87a189	-0.0041391295
109	0xb9c7a595	-0.00038079606
110	0xbbb6bdb7	-0.005576815
111	0x3c28e4d1	0.01030846
112	0xbb64e525	-0.003492662
113	0xbb3f0e39	-0.0029152764
114	0x3b08abc9	0.0020854345
115	0x3c19e636	0.0093932655
116	0x3ac649e4	0.0015128222
117	0xbbecb821	-0.0072240983
118	0xbc946c2a	-0.018117983
119	0xba515ea7	-0.00079868216
120	0xbba14921	-0.0049220477
121	0x3a0fc2cc	0.0005484044
122	0x3a9fa947	0.0012181186
123	0xbbf8463b	-0.0075767315
124	0xbac6bc78	-0.0015162369
125	0x3c452463	0.012032601
126	0xbbbd4a71	-0.0057766964
127	0xbc945744	-0.018108018
128	0x3bf044fa	0.0073324414
129	0x3c1f6549	0.009728738
130	0xbaa1bb1c	-0.0012339088
131	0xbbc6bd0f	-0.006065018
132	0x38449d8d	4.6876772e-05
133	0xbbc8dc5e	-0.0061297854
134	0x3c2f5c2e	0.01070313
135	0xbbff06dd	-0.0077828006
136	0x3be495e1	0.006975875
137	0x3c80c5c8	0.01571931
138	0x3b52e77f	0.003218144
139	0x3b6a551a	0.003575629
140	0xbc3edbeb	-0.011649112
141	0x3b355e73	0.0027674704
142	0xbae626e4	-0.0017559198
143	0xbb34d706	-0.0027593984
144	0xb92e0b3c	-0.00016598118
145	0xbc834e41	-0.016028525
146	0x3b23dadf	0.0025002284
147	0xbc824d54	-0.015906014
148	0xbc1b78e9	-0.009489276
149	0x3c592104	0.0132525
150	0xbc186f47	-0.009303874
151	0xbbb7c99f	-0.005608752
152	0xbaf49776	-0.0018660862
153	0xba0c6e17	-0.0005356981
154	0x3b869029	0.0041065407
155	0x3b9abba7	0.004722077
156	0x3bd77dd2	0.0065762782
157	0xbc446fe1	-0.011989565
158	0xbbcff273	-0.006346041
159	0x3c497194	0.012295146
160	0x3c3bf009	0.011470803
161	0x3b6601e5	0.0035096344
162	0x3c1344df	0.008988588
163	0xbb8fbc7b	-0.0043864823
164	0x3b3a2b97	0.002840733
165	0x3bfe56e8	0.007761825
166	0x3b3e2370	0.0029012822
167	0xbbad2a68	-0.0052845962
168	0xbbffde13	-0.0078084557
169	0x3bd62008	0.00653458
170	0x3981cb0f	0.00024756088
171	0x3ad3c6ee	0.0016157308
172	0x3bd1d3ac	0.006403407
173	0xbb455e82	-0.0030116145
174	0xba8a9277	-0.0010572214
175	0x3c41a417	0.011818907
176	0x3c1ad34c	0.009449791
177	0x3b0b1fcb	0.0021228667
178	0x3c13d093	0.009021896
179	0x3add7c4c	0.0016898005
180	0xbbf9bce7	-0.007621396
181	0xbc966c11	-0.018362077
182	0x3ba113cf	0.0049156914
183	0xbbd94dbc	-0.006631581
184	0x3bacf9c2	0.005278797
185	0xbb2df3f7	-0.002654312
186	0x3c80a0fd	0.015701765
187	0xb90c989d	-0.00013408293
188	0xbbb7472c	-0.005593201
189	0x3c9f205c	0.01942461
190	0x3c8f408f	0.017486839
191	0xbb1a4acf	-0.0023543125
192	0x3bc354fa	0.0059610577
193	0x3bc4f427	0.0060105505
194	0xbbcc709a	-0.006239009
195	0xbc32b82c	-0.010908168
196	0x3b35796a	0.0027690777
197	0x3bb8d14d	0.005640185
198	0xba32615b	-0.0006804668
199	0xbc6b21d3	-0.014351326
200	0x3bf8ab0b	0.0075887493
201	0x3af544e7	0.0018712551
202	0xbc2943d9	-0.010331118
203	0x3bdf8708	0.006821517
204	0x3babcfe4	0.0052432884
205	0x3c18f6e5	0.009336208
206	0x3be2067f	0.006897747
207	0xbbf74239	-0.007545736
208	0xbb7f4010	-0.0038948096
209	0xba922a2f	-0.0011151488
210	0x3b41b2ba	0.0029555992
211	0xbabf5c1e	-0.0014599597
212	0x3c59d4df	0.013295381
213	0xbb735eb2	-0.00371353
214	0x3bc4bb12	0.006003746
215	0x3af554ae	0.0018717253
216	0xbc802cee	-0.015646424
217	0xbb32e786	-0.0027298643
218	0xbc921616	-0.017832797
219	0x3c093041	0.008373321
220	0x3bfc9524	0.0077082086
221	0xba0bfe21	-0.00053402974
222	0x3b5a9f66	0.003335917
223	0xb9b502e2	-0.00034525158
224	0x3c390558	0.011292778
225	0x3bdc0306	0.0067142276
226	0xbc22deca	-0.009940812
227	0xbc0052db	-0.007832254
228	0x3bd95fa6	0.0066337166
229	0xbc73e5b8	-0.014886312
230	0xba09cdf6	-0.0005256826
231	0x3c1ff403	0.009762767
232	0x3c28d518	0.010304712
233	0xbbcd0835	-0.006257082
234	0xbcbd3423	-0.02309615
235	0x3c35c160	0.0110934675
236	0xbb56162e	-0.0032667029
237	0xbb4ccaa2	-0.0031248708
238	0xbc0d7766	-0.008634424
239	0x3b9984f6	0.0046850396
240	0x3c0e7893	0.008695739
241	0xba44a94a	-0.00075020327
242	0x3c6928c5	0.014230912
243	0x3ad867f2	0.001651047
244	0x3c3b9b86	0.011450654
245	0x3b592540	0.0033133775
246	0xb927d37c	-0.00016005145
247	0x38956cc4	7.125133e-05
248	0x3b083ae8	0.0020787064
249	0xbb4c4781	-0.003117055
250	0x3b579492	0.0032894951
251	0xba6d924d	-0.0009062633
252	0x3c8bfb55	0.017087618
253	0xbc1b2f34	-0.009471703
254	0xba083e71	-0.0005197293
255	0x3c506638	0.012719683

action_model._discrete_distribution.branches.0.bias f4 [180]
0	0xba071495	-0.0005152908
1	0xba2abc23	-0.000651302
2	0x3af839fe	0.0018938181
3	0x3a882fdd	0.0010390241
4	0x3ab5b95e	0.0013864448
5	0xbb242faf	-0.0025052836
6	0xb9826a00	-0.00024874508
7	0xbb324342	-0.0027200733
8	0xba2c4151	-0.0006571012
9	0xbacdac85	-0.0015691674
10	0x39749ac8	0.00023327314
11	0x3a6f0da6	0.000911916
12	0xba2b178e	-0.0006526642
13	0xba69b6cc	-0.00089154835
14	0x39c7f0f9	0.00038135776
15	0xbaa40f47	-0.001251676
16	0xb943bfb9	-0.00018668071
17	0xbb510bc2	-0.0031897877
18	0xba3ed6ca	-0.0007279931
19	0xbb02ad98	-0.0019939896
20	0x39ce080d	0.0003929738
21	0xb8240f1d	-3.9114722e-05
22	0x38d09588	9.946065e-05
23	0x3a8388ad	0.0010035239
24	0xbabeca0a	-0.0014556062
25	0x3a2b41b4	0.0006532923
26	0x3b284acf	0.0025679355
27	0xb989c5b3	-0.00026277974
28	0xbaffe5fa	-0.0019523494
29	0xba19f3f1	-0.0005872837
30	0x3b065742	0.0020498787
31	0x3a43f156	0.00074746215
32	0xba3d1f62	-0.0007214454
33	0xb9845a9b	-0.00025244508
34	0xb8a287c9	-7.750054e-05
35	0xb921cca4	-0.00015430391
36	0x3a356608	0.0006919806
37	0x3b14affe	0.0022687907
38	0x399067c1	0.00027543123
39	0xbae7c4ac	-0.0017682514
40	0x399267e7	0.00027924703
41	0xbae38461	-0.0017358178
42	0x3653244b	3.1462575e-06
43	0x3a686c0c	0.0008866198
44	0x3a32d64a	0.00068220927
45	0xbaaf855c	-0.0013391185
46	0x3998db92	0.00029155292
47	0x3a47af62	0.00076173816
48	0xb9eba5a1	-0.00044946096
49	0x3aadb15c	0.001325171
50	0xba1334a4	-0.0005615449
51	0xbae634f5	-0.001756339
52	0x3aadfbbe	0.0013273878
53	0xbb47c330	-0.003048133
54	0x3a48c544	0.00076587894
55	0x3921d5fe	0.00015433875
56	0xbb29b080	-0.0025892556
57	0x3a88046a	0.0010377292
58	0xbac23efd	-0.0014819797
59	0xba4887ea	-0.00076496473
60	0xbb29376e	-0.0025820392
61	0x3aa98d28	0.0012935745
62	0xba2d0eb5	-0.0006601618
63	0x3a5472df	0.00081042753
64	0x3962ac92	0.00021617327
65	0x3a6745c5	0.0008822347
66	0x3a7c87d2	0.0009633276
67	0x3aa69bd6	0.0012711238
68	0xba88b65d	-0.0010430325
69	0x3b293cb0	0.0025823526
70	0xb8efb7fc	-0.00011430678
71	0x3aaf1bd8	0.0013359739
72	0xba80a8cb	-0.0009815929
73	0xbaa4ed80	-0.0012582988
74	0x396488e1	0.00021794766
75	0xba310008	-0.0006752019
76	0x3adb9468	0.0016752603
77	0xba07809d	-0.0005169006
78	0xba64ce29	-0.000872823
79	0x3a2b6355	0.0006537934
80	0x39e03967	0.00042767377
81	0x3611824b	2.1682524e-06
82	0x3a83b908	0.001004965
83	0xbb08f0fc	-0.002089559
84	0x3a3095f9	0.0006736215
85	0xbb035017	-0.002003675
86	0x39ec3769	0.00045054712
87	0x3aac1de5	0.0013131468
88	0xbb04aae8	-0.002024347
89	0x3b32d903	0.0027289994
90	0xba1fbcb7	-0.00060934894
91	0xbadd3a5e	-0.0016878357
92	0x3aa7fbe8	0.0012816163
93	0xbb33657e	-0.0027373726
94	0xb9f5bb60	-0.00046869647
95	0x3a178a4f	0.00057808025
96	0x3a85d3d9	0.001021023
97	0x38ceca23	9.860496e-05
98	0xba3780d9	-0.0007000096
99	0xb96b6d2f	-0.0002245202
100	0xba48c7fd	-0.0007659195
101	0x3b174759	0.0023083298
102	0x3a867f0b	0.001026125
103	0xb9c78752	-0.0003805706
104	0xbabd396d	-0.001443667
105	0xbb28eab9	-0.0025774671
106	0xb9d6792e	-0.00040907547
107	0x3af35b7c	0.0018566693
108	0x3b203d2b	0.0024450521
109	0xba945c26	-0.0011318966
110	0xba596a78	-0.0008293758
111	0xba4ddefe	-0.0007853358
112	0x3a3dca43	0.0007239917
113	0x3a229237	0.0006201597
114	0xba641cd2	-0.00087018043
115	0xbac2d095	-0.0014863188
116	0x395f2547	0.00021280824
117	0x3a0e1c46	0.0005421083
118	0x39b680ea	0.00034809794
119	0xbaa36dc9	-0.0012468632
120	0x39f03e3a	0.0004582273
121	0xbab53db8	-0.0013827598
122	0x3aa4ce08	0.0012573609
123	0x3aac4e1a	0.0013145835
124	0xb9c24d16	-0.00037059997
125	0xba0b13c7	-0.0005305376
126	0x3b33d06c	0.0027437462
127	0xbb1232e8	-0.0022308175
128	0x39db778b	0.00041860002
129	0x3a312904	0.0006758126
130	0xbad1c51e	-0.001600418
131	0xb9dae1e8	-0.00041748513
132	0xbaf17b17	-0.0018423524
133	0xb9c2490f	-0.00037056996
134	0x3adf5c4b	0.0017041055
135	0x3b0fc129	0.00219352
136	0xb9e1b587	-0.00043050593
137	0x3ad20385	0.0016022777
138	0xbb28b8e0	-0.002574496
139	0xbb25421e	-0.002521641
140	0x3af4b336	0.0018669132
141	0xba8ac7f8	-0.001058816
142	0x3a202f61	0.00061105756
143	0xba06774e	-0.0005129472
144	0xbad64ff8	-0.0016350737
145	0x3ad42b02	0.0016187134
146	0xb937d04f	-0.00017529841
147	0x3a870ce3	0.0010303523
148	0xbaa80c09	-0.001282097
149	0x3ab2abd2	0.0013631529
150	0xbaae5418	-0.0013300208
151	0xbb2dd8a6	-0.0026526838
152	0xbb04d17c	-0.0020266464
153	0xba4640e9	-0.0007562773
154	0x3b27a206	0.0025578751
155	0xbb3397d3	-0.0027403727
156	0xbb199f3d	-0.002344086
157	0xbb03f45d	-0.0020134666
158	0xb9a2e41e	-0.00031069008
159	0xb8f6f9a3	-0.000117766926
160	0xbacf6993	-0.001582431
161	0xba91c4c4	-0.0011121263
162	0x39599a34	0.00020752178
163	0x3afc69f4	0.0019257651
164	0x39240dd9	0.00015645417
165	0xba387921	-0.00070370926
166	0xba203a97	-0.0006112246
167	0x39d3d197	0.00040401213
168	0xba214585	-0.0006152022
169	0xb9af327f	-0.00033416224
170	0x395947eb	0.00020721524
171	0x3aa146e9	0.0012304458
172	0x38b0ce4d	8.4307605e-05
173	0xbab793e2	-0.0014005865
174	0xbac15e1a	-0.0014752776
175	0x3a3f0088	0.0007286151
176	0xb99db6b0	-0.00030081486
177	0x3b31421a	0.0027047456
178	0xbb1c4fd1	-0.0023851285
179	0x3a1f8ffa	0.0006086823

action_model._discrete_distribution.branches.1.weight f4 [4, 128]
0	0x3cb7a99c	0.022419743
1	0x3c4cf57e	0.012509702
2	0x3b49e7e4	0.0030808384
3	0xbaaaa5bb	-0.0013019362
4	0xbbf36b4c	-0.0074285623
5	0x39091703	0.0001307391
6	0x3b1581fa	0.0022813068
7	0xbadeb4d8	-0.0016991151
8	0x3be6ec60	0.007047221
9	0x3c027629	0.007962742
10	0xbb81de55	-0.0039632716
11	0x3c08dbfd	0.008353231
12	0xbbaf86f6	-0.005356665
13	0x3bd88460	0.006607577
14	0x3b864f8d	0.0040988387
15	0x3b9aeda7	0.0047280374
16	0x3b18e778	0.0023331326
17	0x3b1caec2	0.0023907875
18	0x3b9203f5	0.004456038
19	0xbad9f00b	-0.0016627325
20	0x3b77adcb	0.0037792798
21	0x3bf8cd01	0.0075927977
22	0xbbc1b50e	-0.005911476
23	0x39299313	0.00016171885
24	0xbc8468d4	-0.016163267
25	0x3c007aa6	0.007841742
26	0xbc8d5703	-0.017253404
27	0x3ba1284b	0.0049181334
28	0x3c74661f	0.014916926
29	0x3bbdbf2f	0.005790613
30	0x3c5a24c2	0.013314428
31	0x3bb2d601	0.00545764
32	0xbb105423	-0.0022022806
33	0x3c167e12	0.009185331
34	0x3c5f403c	0.0136261545
35	0xbc385772	-0.011251317
36	0xbb668f72	-0.0035180715
37	0x3c9e349b	0.019312194
38	0xbbdd755d	-0.0067583756
39	0xbb8fbb6a	-0.004386355
40	0xbbb172c5	-0.005415293
41	0xbafffb4d	-0.001952985
42	0x3b9385c7	0.0045020315
43	0xbc8a066b	-0.016848763
44	0x3b6b2ac2	0.003588364
45	0x3c00f4e2	0.007870885
46	0xba96ff0d	-0.0011520103
47	0xbb98552f	-0.0046488266
48	0xbbdfbeac	-0.00682815
49	0x3c9a8256	0.018860977
50	0x39c75d62	0.00038025813
51	0xbb8f2719	-0.0043686745
52	0x3c0a3424	0.008435283
53	0x3abf485f	0.0014593712
54	0xba296933	-0.0006462514
55	0xbbd7e648	-0.006588731
56	0xbb92e96f	-0.004483394
57	0xbbcf8254	-0.006332675
58	0xbb2b76ae	-0.0026163268
59	0x3b913edb	0.004432542
60	0x3c8d61a8	0.01725848
61	0x3acd7526	0.0015675172
62	0xbc2dc35e	-0.010605661
63	0x3b885284	0.0041602273
64	0xbc198182	-0.009369256
65	0x3b9a7163	0.004713224
66	0xbb82e4b3	-0.003994548
67	0x3c8c61e5	0.017136524
68	0x3c817072	0.015800688
69	0x3a679b0b	0.0008835054
70	0x3c1c217e	0.00952947
71	0x3b827c48	0.0039821006
72	0x3bae69f6	0.00532269
73	0xbbf21f9e	-0.007389023
74	0xbb46cd1d	-0.003033466
75	0x3a744bc4	0.0009319151
76	0xbc044f98	-0.008075617
77	0xbb72308b	-0.0036955203
78	0x3bbf2beb	0.005834093
79	0x3c2a5213	0.010395545
80	0xbb4c1668	-0.0031141285
81	0xbc252124	-0.010078702
82	0xbb92c174	-0.004478628
83	0x3a3f01c2	0.0007286334
84	0xbcac8ff1	-0.02106473
85	0xbbd0072b	-0.0063485107
86	0x3b8a860d	0.004227406
87	0xbc7b45d1	-0.01533647
88	0x3bd71a7d	0.006564437
89	0xbb3e0acd	-0.0028998137
90	0xbb8c40b7	-0.0042801755
91	0x3abef0a1	0.0014567563
92	0xbbcfc4ab	-0.0063405833
93	0x3bc75fd5	0.006084422
94	0x3ad15e24	0.0015973491
95	0x3c078006	0.008270269
96	0x3b64fdaf	0.0034941246
97	0xbc1babc9	-0.009501406
98	0xbc8852bd	-0.016641015
99	0x3bd27ca6	0.0064235507
100	0x3c12c387	0.00895775
101	0x3bd035eb	0.006354084
102	0xbbabe102	-0.005245329
103	0xbbf5a1cc	-0.0074960943
104	0xb9b2d8d1	-0.00034112346
105	0x3bbb0886	0.005707803
106	0xba2225a5	-0.0006185419
107	0xbc3d4434	-0.011551905
108	0xbb840360	-0.0040287226
109	0x3b48000e	0.003051761
110	0xbc88909d	-0.01667052
111	0x392f21d1	0.00016701898
112	0xba1865f1	-0.00058135303
113	0x3ae83a47	0.0017717563
114	0xb9f16740	-0.0004604403
115	0xbb57927c	-0.0032893708
116	0x3ca059c7	0.01957406
117	0x3c1fd13b	0.009754474
118	0x3b0206f8	0.001984058
119	0x3b4b674a	0.0031036907
120	0xbba315a4	-0.004976945
121	0xbbc758e8	-0.0060835965
122	0x3be79f0e	0.0070685213
123	0xbc94a447	-0.01814474
124	0x3b40d81b	0.0029425684
125	0xbca938cf	-0.020656971
126	0x3c65cf03	0.014026406
127	0x3b303bdd	0.002689115
128	0xbb1d2553	-0.0023978546
129	0x3a6c98f8	0.00090254797
130	0x3af41077	0.001862063
131	0xbb94c42f	-0.0045399885
132	0x3a6fd0f7	0.00091482647
133	0x3ac87887	0.0015294709
134	0x3b1cc7ab	0.0023922722
135	0x3bf973dd	0.007612689
136	0xbba9b658	-0.005179208
137	0x3c032aa3	0.008005771
138	0xbaf37748	-0.0018574977
139	0x3c5a482c	0.013322871
140	0x3bbc1c48	0.005740676
141	0x3b8d7a7b	0.0043175793
142	0x3b9a414b	0.0047074906
143	0xbcda8d3a	-0.02667867
144	0xbc298a13	-0.010347861
145	0xbbde6e9a	-0.006788087
146	0xbbe4c6ad	-0.006981692
147	0x3afe98ea	0.0019424234
148	0x3b4a8bd6	0.0030906103
149	0x3bd7190b	0.0065642647
150	0xbb17bd40	-0.0023153573
151	0x3c681abb	0.014166529
152	0x3be5bdf5	0.00701117
153	0xbc53a1ef	-0.012917026
154	0x3bf451ff	0.0074560638
155	0xbc0559b3	-0.008139062
156	0xba8d659d	-0.0010787729
157	0x3c3ddaa2	0.011587771
158	0xbbd8062f	-0.006592534
159	0xbc2b711d	-0.01046398
160	0xbb9e9f00	-0.0048407316
161	0x3b8fb276	0.004385288
162	0x3b2269c0	0.002478227
163	0xbb590762	-0.0033115973
164	0xbbb58383	-0.005539359
165	0x3beef1d6	0.0072920127
166	0x3b674331	0.0035287852
167	0xba9bede1	-0.0011896455
168	0x3bb49946	0.0055114357
169	0x3b7254ae	0.0036976743
170	0x3959059e	0.00020696825
171	0xbb556e29	-0.0032566881
172	0x3c0d89f7	0.00863885
173	0xbc9d5109	-0.01920368
174	0x3bde6e2b	0.0067880354
175	0xbbb406aa	-0.0054939585
176	0xbbcc15fd	-0.006228207
177	0x37908dfb	1.7232253e-05
178	0x3cf9022f	0.030396549
179	0xba7be3ed	-0.0009608854
180	0xbcb42105	-0.021988401
181	0xbc6d5544	-0.014485661
182	0x3baf5db0	0.0053517446
183	0xbbaf5660	-0.005350873
184	0x3c0277c5	0.007963126
185	0x3ae9c764	0.0017835912
186	0x39c199df	0.00036926472
187	0xbc1f5f6d	-0.009727341
188	0x3c3228f1	0.010874019
189	0xbbc9ea65	-0.006161975
190	0xbc2f9f2f	-0.010719105
191	0x3b2d4672	0.0026439694
192	0x3cad261c	0.021136336
193	0xbbca4a7f	-0.0061734314
194	0xbc0406c0	-0.00805825
195	0x3b1cc5ee	0.0023921686
196	0x3c0113a3	0.007878217
197	0x3bc5f09b	0.0060406453
198	0xbbf59ac8	-0.007495258
199	0xbc7a8a27	-0.015291727
200	0x3b2b8ce3	0.0026176504
201	0x3c44b735	0.012006571
202	0xbc9d7fa8	-0.01922591
203	0xbb4f926c	-0.0031672968
204	0xbc5d0144	-0.013489071
205	0xbc88d088	-0.016700998
206	0xbcc1c4fe	-0.023653504
207	0xbb9c542e	-0.004770777
208	0x3c15500c	0.009113323
209	0xbcac7e5c	-0.021056347
210	0x3bf79e2e	0.0075566983
211	0x3bc90d19	0.0061355946
212	0x3b2b8d3f	0.0026176719
213	0x3ae6bb3d	0.0017603409
214	0x3ba10f75	0.0049151727
215	0xbc3b6ba1	-0.011439235
216	0xbb23e6a2	-0.0025009294
217	0x3b9def6b	0.0048198006
218	0xba3d4e80	-0.0007221475
219	0xbc54af0b	-0.012981187
220	0xbb66396e	-0.0035129446
221	0x3c11b611	0.008893506
222	0x3b977e8e	0.004623241
223	0x3bb579ad	0.0055381865
224	0x3b095550	0.0020955391
225	0x3ab3bce9	0.0013712916
226	0x3a860251	0.0010224079
227	0x3c24b1bf	0.010052144
228	0x3b72c18e	0.0037041637
229	0x3c1bd575	0.009511341
230	0x3c268e7b	0.010165806
231	0x3c8252f2	0.015908692
232	0x3c3571cf	0.011074497
233	0x3b9e84e3	0.0048376187
234	0xbbbd7ec6	-0.005782935
235	0x3a39962b	0.0007079567
236	0xbb39a87f	-0.0028329191
237	0x3ccdf7d7	0.025142593
238	0xbad9b797	-0.00166105
239	0x3becea55	0.007230083
240	0x3a6c0f85	0.0009004998
241	0xbb5cea8a	-0.0033709132
242	0xbc5cd299	-0.013477945
243	0xba07659d	-0.0005164983
244	0xbc6d5e18	-0.014487766
245	0xbc7486fd	-0.014924762
246	0xba16f0a5	-0.0005757905
247	0xbb0e5036	-0.002171529
248	0xbaef39dd	-0.0018251498
249	0x3a323f10	0.0006799558
250	0x3b3d5955	0.0028892357
251	0xbbf775a1	-0.0075518643
252	0x3c280abc	0.0102564655
253	0xbb4b93c9	-0.0031063429
254	0x3633be63	2.6783898e-06
255	0x3b86edfd	0.004117726

action_model._discrete_distribution.branches.1.bias f4 [4]
0	0x3a90740f	0.0011020916
1	0xb9f79cc5	-0.00047228314
2	0x3a219291	0.00061635027
3	0xb9eb39ca	-0.0004486575

action_model._discrete_distribution.branches.2.weight f4 [18, 128]
0	0xbc75496c	-0.014971118
1	0x3be950da	0.007120234
2	0xb97bca46	-0.00024012578
3	0x3c287667	0.010282136
4	0x3ca22a0e	0.019795444
5	0xbbc23c0f	-0.0059275697
6	0x3b333398	0.0027343985
7	0xbbab50cf	-0.005228139
8	0x3bbd66dd	0.0057800845
9	0x3ab0c5c1	0.001348667
10	0x3c8f651a	0.017504264
11	0xbba4154b	-0.005007421
12	0x3b8013b5	0.0039085993
13	0x3b29614f	0.0025845354
14	0x3c5dae43	0.013530317
15	0x3b1f0f5a	0.0024270625
16	0xbb4310db	-0.0029764685
17	0x3bba8268	0.005691815
18	0x3c2fc5a9	0.010728278
19	0xbac482b6	-0.0014992568
20	0x3b1c275b	0.0023827169
21	0x3bc87054	0.006116906
22	0x3b4e51c1	0.0031481835
23	0xbb0fa4b1	-0.0021918232
24	0xba8cb8f5	-0.0010736274
25	0x3c88ca22	0.016697947
26	0xbc401ff2	-0.011726366
27	0xbb67cb16	-0.0035368851
28	0xbc80b467	-0.015711023
29	0x3b49c194	0.0030785548
30	0xbbb5e60f	-0.0055511068
31	0x3b61d5a1	0.0034459608
32	0xbb0c4ce0	-0.0021408126
33	0xbc31b8b4	-0.010847259
34	0x3b27406f	0.0025520583
35	0x3ad8f7a6	0.0016553297
36	0x3bfd4339	0.007728961
37	0xbbab51b1	-0.0052282442
38	0xbbcb15dc	-0.006197674
39	0x3ca554d7	0.020182056
40	0xbb3f508d	-0.00291923
41	0xbc1ef150	-0.009701088
42	0x3ae2aa65	0.0017293213
43	0x3bb1b575	0.0054232427
44	0x3b9a8d26	0.0047165332
45	0x3bdb6484	0.006695332
46	0x3bc457cf	0.005991913
47	0xba5d1499	-0.000843355
48	0xbc174864	-0.009233568
49	0xbc8c9d67	-0.017164899
50	0x3b839c29	0.0040164185
51	0x3c0fa6fc	0.0087678395
52	0xbc34c033	-0.011032152
53	0x3babc287	0.0052416953
54	0x3b1824b2	0.0023215231
55	0x3b680f65	0.0035409566
56	0x3b936d94	0.0044991467
57	0xbbd88112	-0.0066071833
58	0x3b05c62a	0.0020412304
59	0x3bd8affd	0.0066127763
60	0x3bbe7997	0.0058128345
61	0xbb3a1cd2	-0.0028398526
62	0x3b3f080a	0.0029149079
63	0x3bb8f19a	0.0056440355
64	0x3c328888	0.010896809
65	0xbca032a8	-0.019555405
66	0xba0f1541	-0.0005458184
67	0xbc6d54da	-0.014485562
68	0xbc37a4e5	-0.0112087475
69	0x39baf1ba	0.00035656785
70	0x3b83b740	0.004019648
71	0xbc2486d1	-0.010041908
72	0x3c04befa	0.008102173
73	0x3c636d47	0.013881034
74	0x3b98253d	0.004643111
75	0xbb76f55c	-0.0037682867
76	0x3c3b98fa	0.011450047
77	0x3bc8ca86	0.0061276583
78	0xba9ae9da	-0.0011818961
79	0x3bedbd2f	0.0072552185
80	0x3c046565	0.008080815
81	0x3c1ad1a1	0.0094493935
82	0x3c773524	0.015088353
83	0x3c3f687e	0.011682628
84	0x3bde7105	0.0067883753
85	0x3c116c08	0.008875854
86	0xbc812827	-0.015766216
87	0x3c6686a0	0.014070183
88	0x3bec766a	0.0072162645
89	0xbc3aeb20	-0.011408597
90	0xbc6a0348	-0.014283009
91	0x3b9bcbcd	0.0047545196
92	0x393e5fb4	0.00018155464
93	0x3c0cda75	0.008597006
94	0x3c7fc378	0.015610568
95	0x3991c353	0.00027802083
96	0xbbcd3d65	-0.0062634223
97	0x3bd98085	0.006637635
98	0xba388b4a	-0.00070397987
99	0xbc671bb8	-0.01410573
100	0xbb72aea9	-0.0037030375
101	0x3bf456c8	0.007456634
102	0xba769358	-0.0009406111
103	0xbb482568	-0.0030539874
104	0x3bce8db1	0.006303512
105	0xbc185e66	-0.00929985
106	0x3c408d3e	0.011752425
107	0xbbcdad04	-0.0062767286
108	0xbbd907ec	-0.006623259
109	0xbc0f00eb	-0.008728246
110	0x3bc85b41	0.006114394
111	0xbb487817	-0.0030589157
112	0xbbad7a0d	-0.0052940906
113	0x394d8a47	0.00019601836
114	0x39f35992	0.00046415307
115	0x3c1f8494	0.009736199
116	0x3c81c187	0.015839351
117	0xbc092ce9	-0.008372524
118	0xbcdf8776	-0.027286272
119	0x3c12e40b	0.0089655025
120	0xbc64c3d6	-0.013962707
121	0x3c0f2571	0.008736954
122	0x3b7c204d	0.0038471401
123	0xbc03d06c	-0.008045297
124	0x3bce21e0	0.0062906593
125	0x3a9f00f7	0.0012131025
126	0xbbda47a7	-0.0066613737
127	0xbb99ece5	-0.0046974295
128	0xba69cc40	-0.000891868
129	0x3c4fca84	0.012682561
130	0xbc3cda33	-0.011526632
131	0x3c88fbce	0.016721632
132	0xbb38f6d5	-0.0028223295
133	0xbb203047	-0.0024442838
134	0x3c01faf4	0.007933367
135	0x3c403971	0.011732445
136	0xbb504ee3	-0.0031785301
137	0xbbda2571	-0.0066572954
138	0x3c513b1e	0.012770442
139	0x3b9c95a0	0.004778579
140	0xbc65db7f	-0.014029383
141	0xbc0ea551	-0.008706407
142	0x3c8b0c20	0.016973555
143	0x3bba833e	0.005691915
144	0x3c4c6727	0.012475765
145	0x3b980530	0.0046392903
146	0xbc335db0	-0.01094763
147	0xbc895358	-0.016763374
148	0xbc264449	-0.010148116
149	0x3bfc8ec3	0.007707448
150	0xbb2eec9f	-0.002669133
151	0x3cacc37d	0.02108931
152	0xbac97703	-0.0015370551
153	0xbc1cfc73	-0.009581673
154	0xbaea675c	-0.0017883587
155	0xbb104f4f	-0.0022019928
156	0x3ae9a2a0	0.0017824955
157	0xbb8ba3cf	-0.004261471
158	0xbbb06f24	-0.0053843427
159	0xbbb19845	-0.0054197633
160	0xbbe547ec	-0.006997099
161	0x3c7c5113	0.015400189
162	0xbc144aa5	-0.009051
163	0x3bce601f	0.0062980796
164	0xbc1e5105	-0.009662871
165	0x3af5e1d4	0.0018759319
166	0x3b38948b	0.002816471
167	0xbc1d1227	-0.009586847
168	0xbc6cdfd6	-0.0144576635
169	0x3bdfd863	0.006831215
170	0x3b6a8dac	0.003579001
171	0xbc3035b8	-0.010754995
172	0xbc36da30	-0.011160418
173	0xbc1e82c5	-0.009674733
174	0xbb0a7021	-0.0021123963
175	0x3b0370fd	0.002005636
176	0x366a8877	3.494815e-06
177	0x3ba42a9a	0.0050099613
178	0xbb808271	-0.0039218
179	0xbbddb78d	-0.0067662657
180	0x3b132ee9	0.002245838
181	0x3c089dc7	0.008338398
182	0xbbc09ffa	-0.0058784457
183	0x3bf305bd	0.0074164555
184	0xbc839889	-0.016063945
185	0x3bade4b0	0.0053068027
186	0xbaa49b78	-0.001255854
187	0x3bcbf0d2	0.0062237764
188	0x3b16760f	0.0022958552
189	0x3c1e5a5b	0.009665097
190	0xb955e833	-0.00020399764
191	0x3b90de2c	0.004421016
192	0xbccaa7c2	-0.024738196
193	0xbc17e267	-0.009270287
194	0xbb248c3f	-0.0025108007
195	0xbc1a7f07	-0.0094297
196	0xbc329294	-0.010899205
197	0x3c95d8d7	0.018291874
198	0xbc5cbc76	-0.013472667
199	0xbc849306	-0.016183387
200	0x3a9c1e88	0.0011910954
201	0x3bfe9ff1	0.0077705313
202	0x3b20042f	0.0024416556
203	0xbbcc9428	-0.0062432475
204	0xbb5b5425	-0.0033466902
205	0xbc179b3d	-0.00925332
206	0xbad61b5a	-0.0016335056
207	0xbbf8f4f3	-0.0075975596
208	0xbba3968a	-0.004992311
209	0x3bc5fbe6	0.0060419915
210	0x3bac307a	0.0052548023
211	0x3ac03a65	0.001466584
212	0x3bd06298	0.0063594095
213	0xbbb247e3	-0.0054406985
214	0xbba23616	-0.004950295
215	0x3bdc8b42	0.006730468
216	0x3c5d7279	0.013516062
217	0x3b8813f1	0.004152768
218	0xbc0059ef	-0.007833942
219	0x3b9252ff	0.0044654603
220	0x3bd2ac82	0.006429256
221	0xbc26826d	-0.010162932
222	0x3b61adb4	0.003443581
223	0x3bda42c2	0.00666079
224	0xbbd37a25	-0.0064537697
225	0xbc2e1117	-0.010624192
226	0x3be715d1	0.0070521613
227	0x3b6bf15e	0.003600202
228	0x3b50749e	0.003180779
229	0xbc57e774	-0.013177741
230	0x3c145edf	0.009055822
231	0x3b6a0688	0.003570946
232	0xb9f78b56	-0.00047215325
233	0xbb8124a0	-0.0039411336
234	0xbc38eba4	-0.01128665
235	0xbc1dbfec	-0.009628277
236	0xba234997	-0.0006228922
237	0x3b5249c3	0.0032087422
238	0xbb9b8a2c	-0.004746696
239	0x3c0dccfe	0.008654831
240	0x3c13c16c	0.009018283
241	0xbc1b3fea	-0.0094756875
242	0xbadd2e41	-0.0016874747
243	0x3b2f2efb	0.0026730883
244	0x3c3aebff	0.011408805
245	0xbb5e9914	-0.0033965753
246	0xb8f72176	-0.000117841104
247	0x3bb5213f	0.005527645
248	0x3bf8ff0f	0.0075987647
249	0x3aa21538	0.0012365943
250	0xb9cac5b8	-0.00038675754
251	0x3b3dee4d	0.002898115
252	0x3916811a	0.00014353209
253	0xbb28f109	-0.0025778434
254	0xb98ef697	-0.00027268074
255	0xbb62e726	-0.0034622638

action_model._discrete_distribution.branches.2.bias f4 [18]
0	0xba876b57	-0.0010331672
1	0x3b023f3a	0.0019874112
2	0x3ac957ea	0.0015361283
3	0x3a0fafaf	0.0005481196
4	0x3adba3af	0.0016757156
5	0xbab52111	-0.0013819059
6	0xbaf48548	-0.0018655444
7	0x3a353e5c	0.00069138943
8	0xbb01d7ad	-0.001981239
9	0x3a4fbbfa	0.0007924434
10	0xbace093e	-0.0015719307
11	0x39ed9dc1	0.00045321698
12	0xba5043a1	-0.0007944648
13	0xbaaa2025	-0.001297955
14	0xba22e518	-0.0006213947
15	0x39ca0f32	0.00038539764
16	0xb816b85a	-3.5934478e-05
17	0x39f08ecd	0.00045882762
